model.pth (torch, 8971 bytes, 9 tensors)

embedding.weight f4 [20, 5]
0	0x3e03e652	0.12880829
1	0x3fa074b5	1.2535616
2	0xbe489b92	-0.19590595
3	0x3f5a57d3	0.8529026
4	0xbea518f9	-0.32245615
5	0xc02e67d8	-2.7250881
6	0xbf524eda	-0.8215157
7	0x3faa7114	1.3315759
8	0x3dfac0a3	0.12243774
9	0x3dcef3b5	0.10105077
10	0xbfa24812	-1.2678244
11	0xbdac9f1a	-0.08428784
12	0xbe94181f	-0.28924653
13	0x3f4852ca	0.78251326
14	0x3f18c372	0.59673226
15	0x3f0821b6	0.5317644
16	0xbf229a55	-0.6351674
17	0x3fb3ab48	1.4036646
18	0x3f6cfedb	0.9257638
19	0x3e816507	0.2527239
20	0x3faeb484	1.3648839
21	0x3f010f89	0.5041433
22	0x3e2687a1	0.16262676
23	0xbf6395f1	-0.8890067
24	0xbe93e9a4	-0.2888919
25	0x3fa34fa5	1.275868
26	0x3ee88a87	0.45418188
27	0x3f590e75	0.84787685
28	0x3e6671d5	0.22504361
29	0x3d6ca444	0.057773843
30	0x3fd2034f	1.640726
31	0x3f59f666	0.851416
32	0x3ef2d508	0.47428155
33	0xbfa5a015	-1.2939478
34	0xbff2dd18	-1.8973722
35	0x3ffb9710	1.9655476
36	0x3ee9e8a2	0.45685297
37	0x3f925773	1.1432937
38	0x3ef90de7	0.4864342
39	0xbffe4471	-1.9864637
40	0xc02e17b7	-2.7201974
41	0x3fc642a0	1.5489082
42	0xbf84ae12	-1.0365622
43	0xbee099fd	-0.43867484
44	0xbf767403	-0.9627077
45	0x3e7bb45e	0.24580523
46	0xbf225dee	-0.63424575
47	0xbecdb29f	-0.4017534
48	0xbe5e8b87	-0.21732913
49	0xbd06d4d2	-0.032917805
50	0xbdeb3769	-0.11485178
51	0x3f8adc84	1.0848546
52	0x3f414c15	0.75506717
53	0xbf1ba4cd	-0.6079834
54	0xbf183e5b	-0.59470147
55	0xbf03a9b4	-0.5143082
56	0xbeddb8f8	-0.43305182
57	0xbf01faa8	-0.50773096
58	0x3fa9ba8a	1.3260052
59	0x3fd4d75c	1.6628222
60	0xbeaf8dbe	-0.34287828
61	0xbe73cd41	-0.23808767
62	0xbfa4ce37	-1.2875432
63	0xbfbdda1b	-1.4832186
64	0x3f8fcfd9	1.1235305
65	0xbf9a5a53	-1.2058815
66	0xbf90ac43	-1.130257
67	0xbfba07e4	-1.4533658
68	0x3a5369a0	0.00080647506
69	0xc009c503	-2.1526496
70	0x3f689079	0.9084545
71	0xbd8e7789	-0.06956393
72	0x3f54bce6	0.83100736
73	0x3f4fa316	0.81108224
74	0x3f66a0e2	0.9008924
75	0xbf00ed78	-0.5036235
76	0xbf94469f	-1.1584052
77	0x3fe866f7	1.8156422
78	0xbff4a02a	-1.9111378
79	0x3f8567f0	1.0422344
80	0x3e3d3778	0.18478191
81	0x3d4114c9	0.047138963
82	0xbf8b3dea	-1.087827
83	0x3f037008	0.5134282
84	0x3f39df76	0.726066
85	0xbf252059	-0.64502484
86	0x40213023	2.518563
87	0xbec903d1	-0.39260724
88	0x3fa12d19	1.2591888
89	0x3f88483c	1.0647044
90	0x3f6f383e	0.93445194
91	0xbe37ae76	-0.17937645
92	0x3f08f298	0.5349517
93	0xbe9979c2	-0.29975706
94	0xbee09f77	-0.43871662
95	0x3fac8401	1.3477784
96	0xc04d7321	-3.210152
97	0xbf39d600	-0.72592163
98	0xbfe0a0f3	-1.7549118
99	0x3fdafb89	1.7108012

convs.0.0.weight f4 [2, 75, 2]
0	0xbb9cbf34	-0.0047835354
1	0x3d94a802	0.072586074
2	0xbd0dfb9d	-0.034663785
3	0xbc7fde17	-0.015616915
4	0x3b54609e	0.003240622
5	0x3b18b84b	0.0023303207
6	0x3c3e9e9d	0.011634496
7	0x3d6f0095	0.058350164
8	0xbd9be99c	-0.07612917
9	0x3d932548	0.07184845
10	0x3c56da2f	0.013113542
11	0x3d2dfbc9	0.04247645
12	0xbba29b03	-0.0049623265
13	0x3d6e9af5	0.058253247
14	0x3cbe9abc	0.023267142
15	0x3d8dbd80	0.0692091
16	0x3c9f918c	0.019478582
17	0xbd4a3e3b	-0.049375754
18	0xbd1a43ad	-0.037662197
19	0x3d472fa9	0.048629437
20	0xbd917039	-0.07101483
21	0x3bd9605e	0.0066338023
22	0x3bd1558c	0.006388372
23	0x3d61b0cd	0.05510025
24	0xbd614116	-0.05499371
25	0xbb23b258	-0.0024978127
26	0xbd831f17	-0.06402414
27	0x3c94c3f8	0.018159851
28	0xbd8a64e4	-0.067575246
29	0xbd26b277	-0.04069754
30	0xbc53b27c	-0.012920972
31	0xbb6b1f19	-0.003587669
32	0x3cb8ea64	0.022572704
33	0x3d45e549	0.048314366
34	0x3d84554e	0.06461583
35	0xbd9b69e6	-0.07588558
36	0xbd33840c	-0.0438271
37	0x3ca277b0	0.019832462
38	0x3d04c905	0.03241827
39	0xbd36d8f8	-0.04464051
40	0xbd944e1a	-0.07241459
41	0xbd1f332e	-0.038867168
42	0xbd9b324c	-0.07577953
43	0xbd838d97	-0.064234905
44	0x3cf99c0d	0.030469919
45	0x3d0468d4	0.032326534
46	0x3c065f1e	0.008201389
47	0xbd703685	-0.058645744
48	0xbd700ff8	-0.05860898
49	0x3b0a436b	0.0021097313
50	0xbd8d442f	-0.068977706
51	0x3c31d8e3	0.0108549325
52	0x3d612cbe	0.05497431
53	0xbc07dc04	-0.008292202
54	0x3cc33497	0.023828788
55	0xba883fb0	-0.0010394957
56	0x3d1df759	0.038565967
57	0xbcd6ed68	-0.026236251
58	0x3d17c46d	0.03705256
59	0xbd83f843	-0.064438365
60	0x3d550b01	0.052012447
61	0x3ce51c81	0.027967693
62	0x3d83a382	0.06427671
63	0x3d48ce25	0.04902472
64	0xbd13bb98	-0.036067575
65	0x3d3f5f95	0.046722014
66	0xbc1c8c7b	-0.0095549775
67	0x3ccd48b8	0.025059089
68	0x3d3caa95	0.046061117
69	0x3d52c6a9	0.05145899
70	0x3d60eb56	0.054911934
71	0x3ba5e1d2	0.0050623203
72	0xbd2886eb	-0.041144293
73	0x3c88b488	0.016687647
74	0xbda07bb1	-0.07836092
75	0xbd43ef0e	-0.047835402
76	0xbd974b1b	-0.07387372
77	0x3d013dc7	0.031553056
78	0x3d16b4c1	0.036793474
79	0x3d946258	0.0724532
80	0x3d8ea96a	0.06965907
81	0xbd2cdba4	-0.042201653
82	0x3d3d9a15	0.046289522
83	0x3be59dce	0.007007337
84	0xbd7b7330	-0.06138915
85	0xbd008e9b	-0.031386
86	0x3cffe2f9	0.031236159
87	0x3b38dccb	0.0028207775
88	0x3c876054	0.016525425
89	0xbda98973	-0.082781695
90	0xbca86478	-0.02055572
91	0xbd4ae8c4	-0.04953839
92	0x3c43c68d	0.011949194
93	0xbc8bd46d	-0.017069066
94	0x3d44cfd5	0.048049767
95	0xbd8feb8c	-0.07027349
96	0xbdad5083	-0.08462622
97	0xbd37938d	-0.04481845
98	0xbd8bb93b	-0.06822439
99	0x3d83ce62	0.06435849
100	0xbc9ffa20	-0.019528449
101	0xbbeaba9b	-0.0071633584
102	0xbd262ed6	-0.04057201
103	0xbcfee322	-0.031114165
104	0xbcd8b1b8	-0.02645193
105	0x3d73bff8	0.059509248
106	0xbc6d6a2b	-0.014490644
107	0x3d264c15	0.0405999
108	0x3d7e07cf	0.062019166
109	0xbd847073	-0.064667605
110	0xbb3fb9c8	-0.0029255021
111	0x3bc73c9f	0.0060802246
112	0x3d491199	0.049089048
113	0x3cec3801	0.028835298
114	0x3d006f29	0.03135601
115	0xbd54931b	-0.051898103
116	0x3ce0064c	0.027346753
117	0x3bf4060d	0.0074470104
118	0xbba341d3	-0.004982212
119	0xbd61a5b6	-0.055089675
120	0xbda4a2c5	-0.08038858
121	0xbd081719	-0.033225153
122	0x3cd8db9e	0.02647191
123	0x3d7688a4	0.060188904
124	0x3d79e104	0.061005607
125	0x3cd3d0dc	0.025856428
126	0xbcf10d6c	-0.029425345
127	0x3c205682	0.00978625
128	0xbd94a2c6	-0.07257609
129	0x3d4f24f9	0.05057237
130	0xbd9dd5c2	-0.07706787
131	0x39a41b6f	0.00031300957
132	0x3d846f6e	0.06466566
133	0xbd969209	-0.07352073
134	0x3a00cecb	0.0004913627
135	0x3b09560b	0.0020955827
136	0x3cd6e28d	0.026231075
137	0xbd4ade72	-0.049528547
138	0xbd9d4fa4	-0.07681206
139	0xbd190a1d	-0.03736316
140	0xbd56d388	-0.052447826
141	0x3d146479	0.03622863
142	0xbd379246	-0.04481723
143	0xbc2aed14	-0.0104325
144	0x3d05a845	0.032631177
145	0xbc10bf44	-0.008834664
146	0xbcb3a254	-0.02192799
147	0xbc333cfc	-0.010939833
148	0xbd889494	-0.06668964
149	0x3d9b1a2c	0.07573351
150	0xbca7a292	-0.020463262
151	0x3b97f186	0.004636946
152	0x3d84ad9e	0.06478427
153	0xbcd07ed0	-0.025451094
154	0x3df6d5d7	0.120525055
155	0x3c057837	0.008146337
156	0x3dbd1e13	0.09234252
157	0x3d9d8dba	0.07693048
158	0x3d78cc0e	0.060741477
159	0x3d952f1c	0.07284376
160	0x3d5063cf	0.050876435
161	0xbc4d5c1a	-0.012534166
162	0x3da293bc	0.07938334
163	0x3da565ec	0.08076081
164	0x3de0124b	0.10940989
165	0x3c2f3ab7	0.010695151
166	0x3dae28de	0.085038885
167	0x3d6e386a	0.05815927
168	0x3d2ccc8e	0.042187266
169	0x3d27c3c4	0.04095818
170	0x3d241fad	0.04006927
171	0xbb92b1e0	-0.0044767708
172	0x3da7d050	0.08194029
173	0xbc9369a4	-0.01799471
174	0x3cd013e9	0.025400119
175	0x3ccb421f	0.024811802
176	0x3df49e77	0.11944287
177	0xbd236a6c	-0.039896414
178	0x3d9b0562	0.07569386
179	0x3cab8bc8	0.020940676
180	0x3a2bded6	0.00065563375
181	0xbcc93e67	-0.024565889
182	0xba2ff629	-0.0006712401
183	0x3a9c55df	0.0011927447
184	0x3de75093	0.11294665
185	0x3d867237	0.065647535
186	0x3cbf5c65	0.023359487
187	0x3cc32770	0.023822516
188	0x3e09de94	0.13463813
189	0x3cffda17	0.031231923
190	0xbc7e95c7	-0.015538639
191	0x3da13789	0.078719206
192	0xbcc7a527	-0.024370743
193	0xbc6f6b59	-0.014612996
194	0x3d28c890	0.041206896
195	0x3db46a60	0.08809352
196	0xbb9565f5	-0.0045592734
197	0x3d008cdb	0.03138433
198	0x3d864c23	0.06557491
199	0x3d8814bb	0.06644579
200	0x3dca43e1	0.09876228
201	0x3dc646ec	0.09681496
202	0x3d73d955	0.059533436
203	0x3dadbe65	0.084835805
204	0x3d07eca3	0.03318466
205	0x3d391704	0.045187965
206	0x3c44a0be	0.012001215
207	0xbc9a8cac	-0.018865906
208	0xbb8439d2	-0.004035213
209	0x3d910aea	0.0708216
210	0x3ce1d79c	0.02756863
211	0x3c0f75c5	0.008756106
212	0x3dd76c43	0.10518696
213	0x3cf0bf4b	0.02938809
214	0xbc09a053	-0.008400041
215	0x3d04ffd6	0.032470547
216	0x3c4b79d8	0.0124191865
217	0x3cbf3f71	0.02334568
218	0x3d79f3de	0.061023585
219	0x3d73caa6	0.059519432
220	0xbcb8a431	-0.02253923
221	0xbd5171e4	-0.051134005
222	0x3cca2560	0.024676025
223	0x3d9e0195	0.077151455
224	0x3d7830a6	0.06059327
225	0x3ccf5d3b	0.02531301
226	0x3ddada05	0.10686115
227	0x3dc645f6	0.09681313
228	0x3d6e1729	0.058127556
229	0x3da67418	0.08127612
230	0x3dcab97b	0.09898659
231	0xbc8859f7	-0.016644461
232	0xbcb38f28	-0.021918848
233	0x3c2d20e9	0.010566928
234	0x3dd3be0b	0.10338982
235	0x3daf3182	0.08554365
236	0x3d142d7e	0.036176197
237	0x3dca2616	0.098705456
238	0x3d7d60c6	0.06185987
239	0x3d9f7c31	0.077873595
240	0x3d9488fe	0.07252692
241	0x3d5afa0a	0.053461112
242	0x3d35ce3b	0.04438613
243	0x3d8bd1f9	0.068271585
244	0xbaa0b71e	-0.0012261604
245	0xbd519d64	-0.05117549
246	0x3d0cc624	0.03436865
247	0x3d33d434	0.043903545
248	0x3df5b8c1	0.1199813
249	0x3bfc4d15	0.0076996186
250	0x3d62f42b	0.055408638
251	0x3dab3959	0.083605476
252	0xbbfd3d63	-0.007728265
253	0x3d1143c6	0.035465024
254	0x3c9fd23f	0.019509433
255	0x3dcc2866	0.09968643

convs.0.0.bias f4 [2]
0	0xbc34dd8c	-0.011039149
1	0x3dab8f67	0.08376961

convs.1.0.weight f4 [2, 75, 3]
0	0x3dc65226	0.09683637
1	0x3d950796	0.072768375
2	0x3e1b7729	0.15182175
3	0x3ddc420e	0.107547864
4	0x3de79d0e	0.11309253
5	0x3e1e0179	0.1543025
6	0x3daff850	0.08592284
7	0x3e158978	0.14603221
8	0x3d9ebaa4	0.077504426
9	0x3e1c4093	0.15259008
10	0x3dfe67d6	0.12422149
11	0x3e0e4c81	0.13896371
12	0x3dae2374	0.08502856
13	0x3e0fa75e	0.1402869
14	0x3d992344	0.074774295
15	0x3e0ffcf7	0.14061342
16	0x3dba84cc	0.0910736
17	0x3e15a72b	0.14614551
18	0x3d9e5058	0.07730168
19	0x3dcffa08	0.101551116
20	0x3d8391e5	0.064243115
21	0x3d9b8fb5	0.07595769
22	0x3db73de8	0.089473546
23	0x3d29da23	0.041467797
24	0x3da11f42	0.0786729
25	0x3dcbf742	0.0995927
26	0x3e090824	0.13382012
27	0x3e16c3aa	0.14723077
28	0x3dc39e1a	0.0955164
29	0x3dc9f714	0.098615795
30	0x3db85eee	0.090024814
31	0x3d44fed1	0.048094574
32	0x3dfc5762	0.123213544
33	0x3e182655	0.14858373
34	0x3de98dba	0.11403985
35	0x3de055d4	0.109538704
36	0x3e00af51	0.12566878
37	0x3e1a10cc	0.1504547
38	0x3d182820	0.03714764
39	0x3dea46ec	0.114393085
40	0x3db9123e	0.090366825
41	0x3ddf6f96	0.10909955
42	0x3e09d6bf	0.13460825
43	0x3e119f49	0.14220919
44	0x3dd8ec02	0.1059189
45	0x3d5727a6	0.052528046
46	0x3d10ceee	0.035353594
47	0x3d6b5548	0.057454377
48	0x3db6441c	0.088997096
49	0x3e06109f	0.13092278
50	0x3e0d3e78	0.13793361
51	0x3e039a0f	0.12851737
52	0x3d171daf	0.036893543
53	0x3dfb2b56	0.12264125
54	0x3dbd8223	0.09253337
55	0x3e1c504d	0.15265007
56	0x3cd8e310	0.02647546
57	0x3dad09e4	0.08449152
58	0x3e01d723	0.12679724
59	0x3dd37b74	0.10326281
60	0x3d043064	0.03227271
61	0x3dea6c10	0.114463925
62	0x3d3d8bd7	0.04627594
63	0x3dcded9a	0.100550845
64	0x3e1319f5	0.1436537
65	0x3e0a6e34	0.13518602
66	0x3e1dc748	0.15408051
67	0x3d843133	0.064546965
68	0x3e048406	0.12940988
69	0x3e208874	0.15677053
70	0x3e18a331	0.14906003
71	0x3d9e3436	0.07724802
72	0x3d0cf668	0.03441468
73	0x3d94f16a	0.072726086
74	0x3dcfddea	0.101497486
75	0x3dd7b778	0.10533041
76	0x3d80c694	0.06287876
77	0x3dcfd550	0.10148108
78	0x3e0f99fa	0.14023581
79	0x3d48cee2	0.049025424
80	0x3dcaa554	0.09894815
81	0x3cdabf59	0.02670257
82	0x3ceddcb1	0.029035898
83	0x3d4ccb85	0.04999878
84	0x3e02e432	0.12782362
85	0x3d44027c	0.04785393
86	0x3d2b98ac	0.041893646
87	0x3d1dc262	0.038515456
88	0x3dbcbec2	0.09216072
89	0x3e00da26	0.12583217
90	0x3dba28d4	0.090898186
91	0x3de27680	0.11057758
92	0x3cee2fb9	0.02907549
93	0x3dc4c55c	0.09607956
94	0x3dbe7194	0.09299007
95	0x3e021da2	0.12706617
96	0x3d8a19c2	0.06743194
97	0x3dbae3e8	0.09125501
98	0x3d9588fe	0.0730152
99	0x3d17b436	0.037037097
100	0x3df86e64	0.1213043
101	0x3d2855a0	0.041097283
102	0x3d0ade3c	0.033903345
103	0x3d9cfab4	0.07665005
104	0x3dad573a	0.08463903
105	0x3d83482a	0.064102486
106	0x3d3b5689	0.045736823
107	0x3e131491	0.14363314
108	0x3e18e9c4	0.14932925
109	0x3dfe3924	0.124132425
110	0x3d8bd298	0.06827277
111	0x3d8bd669	0.06828005
112	0x3dff243c	0.12458083
113	0x3d7cb2c3	0.061693918
114	0x3d031843	0.03200556
115	0x3e1471fe	0.1449661
116	0x3e1d0b15	0.15336259
117	0x3e077634	0.13228685
118	0x3dea3776	0.114363596
119	0x3d308ffb	0.04310606
120	0x3e1d2483	0.1534596
121	0x3d763053	0.06010468
122	0x3de80b6a	0.11330302
123	0x3d609102	0.05482579
124	0x3def9fb0	0.1170038
125	0x3d0fc4f8	0.035099953
126	0x3daeb79a	0.08531113
127	0x3db616aa	0.088910416
128	0x3d8f190a	0.06987198
129	0x3d484c04	0.04890062
130	0x3d03affc	0.032150254
131	0x3d825f0b	0.06365784
132	0x3e1b39dd	0.15158792
133	0x3e0c067f	0.13674353
134	0x3e1fb031	0.15594555
135	0x3d79e821	0.06101239
136	0x3d22d534	0.039754108
137	0x3d9276f0	0.07151592
138	0x3de8a5b7	0.113597326
139	0x3d85300a	0.06503303
140	0x3d441a33	0.047876548
141	0x3e140f25	0.14458902
142	0x3dbc9848	0.09208733
143	0x3dd6ec42	0.10494281
144	0x3ce08076	0.027405005
145	0x3e15f020	0.14642382
146	0x3db278f4	0.08714476
147	0x3e1d0179	0.15332593
148	0x3df276ba	0.118390515
149	0x3dd28878	0.102799356
150	0x3dbdace2	0.092614904
151	0x3d9fc03a	0.07800336
152	0x3d49ea84	0.049295917
153	0x3d238e2a	0.0399305
154	0x3dc8ae66	0.09798889
155	0x3d7ac3ad	0.061221767
156	0x3d062ed1	0.03275949
157	0x3d939d84	0.07207778
158	0x3d8d40c4	0.06897119
159	0x3d65b3fe	0.056079857
160	0x3e1c5540	0.15266895
161	0x3d682a4d	0.056680966
162	0x3d6eaab4	0.058268264
163	0x3dc70718	0.0971815
164	0x3df95836	0.12175028
165	0x3d04c3f8	0.032413453
166	0x3e072734	0.13198549
167	0x3d8b9b16	0.0681669
168	0x3dad9215	0.084751286
169	0x3d6d9588	0.058003932
170	0x3d790adf	0.060801383
171	0x3db34dbf	0.08755063
172	0x3dc595da	0.096477225
173	0x3d2918b0	0.04128331
174	0x3dc2e22a	0.095157936
175	0x3d10f97e	0.035394184
176	0x3de713ee	0.11283098
177	0x3cd34088	0.025787607
178	0x3d9ffdd2	0.07812084
179	0x3dc9061e	0.0981562
180	0x3d9bcdac	0.07607588
181	0x3cb2ed45	0.021841655
182	0x3e021881	0.1270466
183	0x3d99b7cd	0.0750576
184	0x3db8baae	0.09019981
185	0x3d3e927b	0.046526413
186	0x3e170876	0.14749321
187	0x3dc8686e	0.097855434
188	0x3de40030	0.11132848
189	0x3d1b9fc3	0.037994158
190	0x3de22a6e	0.11043249
191	0x3daee6d0	0.08540118
192	0x3e1f6f6c	0.15569848
193	0x3dbe6e92	0.09298433
194	0x3cdf68a8	0.027271584
195	0x3daab124	0.08334568
196	0x3d87f2f8	0.066381395
197	0x3d4bc2e5	0.049746413
198	0x3dd00462	0.10157086
199	0x3d47ae5c	0.048750266
200	0x3e041189	0.12897314
201	0x3dd98502	0.10621072
202	0x3df4587c	0.119309396
203	0x3e14aa34	0.14518052
204	0x3d01725c	0.031603202
205	0x3d1f478a	0.038886584
206	0x3df3c3f0	0.119026065
207	0x3e1180f0	0.14209342
208	0x3ded873a	0.11598058
209	0x3e187720	0.14889193
210	0x3df9382a	0.121689156
211	0x3deefc30	0.11669195
212	0x3dde7a10	0.10863125
213	0x3dcdff58	0.100584686
214	0x3d5b2a18	0.05350694
215	0x3dc996ae	0.09843193
216	0x3e0157f7	0.12631212
217	0x3dc65aec	0.09685311
218	0x3dc48384	0.09595397
219	0x3dfde00d	0.1239625
220	0x3d208356	0.03918775
221	0x3d86ab58	0.0657565
222	0x3dbcee59	0.09225149
223	0x3d31f789	0.04344896
224	0x3dfbda78	0.12297529
225	0xbd2f8a75	-0.042856652
226	0x3c283959	0.010267579
227	0xbcc35a1a	-0.023846675
228	0x3d29996b	0.041406076
229	0xbb17a665	-0.002313995
230	0xbd520ad1	-0.051279847
231	0xbc60b61b	-0.013715292
232	0x3cdadc1d	0.026716286
233	0x3d5ee170	0.054414213
234	0xbc7e907c	-0.015537377
235	0x3b4a2d76	0.003084985
236	0xbd28e053	-0.041229557
237	0xbd85437a	-0.06507011
238	0xbc2b7d95	-0.010466953
239	0x3d235b08	0.039881736
240	0xbd3e06b3	-0.046393108
241	0x3c6957cf	0.014242127
242	0x3d33b9d8	0.043878406
243	0xbc642e8b	-0.013927112
244	0xbd1e8321	-0.038699273
245	0xbba8191c	-0.0051299464
246	0xbcd4c69b	-0.025973609
247	0xbd7a2d1b	-0.061078172
248	0x3cbc062c	0.022952162
249	0x3ceb21bb	0.028702607
250	0xbd3f34ae	-0.0466811
251	0x3d326c7a	0.043560483
252	0x3d1bc183	0.038026344
253	0x3d0b11fd	0.0339527
254	0x3cd15ad0	0.025555998
255	0xbd4c0c99	-0.0498167

convs.1.0.bias f4 [2]
0	0x3e1d5c8c	0.15367335
1	0xbd4941e8	-0.04913512

convs.2.0.weight f4 [2, 75, 4]
0	0x3d1cc33a	0.03827212
1	0x3d50403b	0.050842505
2	0xbbd02e48	-0.0063531734
3	0xbccd8e17	-0.025092168
4	0x3d49b385	0.04924347
5	0x3daa3ab0	0.08311975
6	0x3d15c29e	0.036562555
7	0x3d18417a	0.03717182
8	0x3d24f9ad	0.040277172
9	0x3d929eff	0.07159232
10	0x3cbed8d8	0.023296759
11	0x3d0f5a79	0.03499839
12	0x3d85faa4	0.065419465
13	0x3d9d0c0c	0.076683134
14	0x3cd376a6	0.025813412
15	0x3d956fe5	0.07296733
16	0x3da32aa9	0.07967121
17	0x3d69e7af	0.057105716
18	0x3d0062ff	0.03134441
19	0x3d88a25b	0.06671592
20	0x3c850367	0.016236974
21	0x3cc412c5	0.023934731
22	0x3cb48f7a	0.022041071
23	0xbc25c300	-0.010117292
24	0x3cbb0a43	0.022832042
25	0xbb727c79	-0.003700046
26	0x3c938582	0.018007997
27	0x3d3bc6fc	0.045844063
28	0xbb7e4a2e	-0.0038801539
29	0x3d02b333	0.03190918
30	0x3b3447ce	0.002750862
31	0x3d7bc1ab	0.061463993
32	0xba06b1a8	-0.0005138167
33	0x3d92c641	0.0716672
34	0x3d885fde	0.0665891
35	0x3d3f18e4	0.046654597
36	0xbc619e31	-0.013770626
37	0x3ce9dbe5	0.028547237
38	0xbccee7c2	-0.025256995
39	0xbb34cc65	-0.002758765
40	0x3d0a265d	0.033727992
41	0xbc85c39f	-0.016328631
42	0x3a9a159d	0.0011755709
43	0xbbe51f21	-0.0069922362
44	0x3c96375b	0.018336942
45	0xbc07fed8	-0.008300506
46	0x3b8ccd74	0.004296953
47	0x3c43f8b7	0.011961154
48	0x3d87a94a	0.06624086
49	0x3daa0653	0.083019875
50	0x3c3252c6	0.010883993
51	0xbcda7053	-0.026664888
52	0x3d0a2ebc	0.033735976
53	0x3a19ca33	0.0005866617
54	0x3d0f3bce	0.034969144
55	0x3db0733b	0.086157285
56	0x3ccbf51c	0.02489715
57	0x3d22f61e	0.039785497
58	0xbc0168cd	-0.007898522
59	0xbc612197	-0.013740919
60	0x3d7c5411	0.06160361
61	0x3d64ac1e	0.055828206
62	0x3d9503f8	0.072761476
63	0x3d3e7dac	0.04650657
64	0x3d87a23b	0.0662274
65	0x3d9ac39f	0.07556843
66	0x3da7029c	0.081547946
67	0x3c278dd0	0.010226682
68	0x3d9c5263	0.076329015
69	0xbcc65213	-0.024209058
70	0x3d262baa	0.040568985
71	0x3d9f7ca1	0.07787443
72	0x3d387ff2	0.045043893
73	0x3d93d6c4	0.07218698
74	0x3d1002ac	0.035158798
75	0x3d29b61d	0.041433442
76	0xbcbaf398	-0.022821233
77	0x3cf2c0ca	0.029632945
78	0x3cb34a11	0.021885904
79	0x3d1405ea	0.036138453
80	0x3d6ca765	0.057776827
81	0x3c25d09f	0.01012054
82	0x3d0af5a6	0.033925675
83	0xbc5a17c3	-0.013311329
84	0x3c8c0274	0.017091013
85	0x3daa2f3d	0.08309791
86	0xbc9481b2	-0.01812825
87	0xbb1b2227	-0.002367148
88	0x3d28d608	0.04121974
89	0x3c9e49e6	0.019322347
90	0x3da63148	0.081148684
91	0x3d4c0e00	0.04981804
92	0x3d0a0555	0.03369649
93	0x3d45c15d	0.04828011
94	0x3ce428e4	0.02785153
95	0x3ce56107	0.028000368
96	0x3d9cf1f7	0.07663339
97	0x3d3732f3	0.044726323
98	0x3c66f51c	0.014096525
99	0x3d471e2c	0.04861276
100	0x3cd3976d	0.025829041
101	0x3d421975	0.04738756
102	0x3d1550f2	0.03645415
103	0xbc30028d	-0.010742796
104	0x3c0d1b90	0.008612528
105	0x3d04a3bb	0.032382708
106	0x3da0e08a	0.078553274
107	0x3d79c47d	0.0609784
108	0x3cf5ff7d	0.030029053
109	0x3d14e4e1	0.03635109
110	0xbc8a542c	-0.01688584
111	0x3c57832d	0.013153833
112	0x3bc94a3e	0.0061428836
113	0xbc3a1062	-0.011356445
114	0x3d13e9a6	0.036111496
115	0x3c36890d	0.011141074
116	0xbcab667a	-0.020922888
117	0x3d1973b0	0.037463844
118	0x3c50bb69	0.012739995
119	0xba5e308f	-0.0008475864
120	0x3da3b7d7	0.07994049
121	0x3ced5a9c	0.02897387
122	0xbcc08968	-0.02350302
123	0x3cd9aa3d	0.026570434
124	0x3d6ef433	0.058338355
125	0xbcdf3299	-0.027245807
126	0x3c3299ea	0.010900954
127	0xbcaed10f	-0.021339921
128	0x3d80d685	0.06290916
129	0x3bb4a249	0.00551251
130	0xbc048678	-0.0080887005
131	0x3ccee793	0.025256908
132	0xbcdc282c	-0.026874624
133	0x3bbc81c3	0.0057527735
134	0xbcd3ed6c	-0.025870048
135	0x3d997255	0.0749251
136	0x3c8fb1f3	0.017540907
137	0xb919d3ad	-0.00014670072
138	0x3d5912ee	0.05299657
139	0xbcb15ab5	-0.021649698
140	0x3d8c01df	0.068362944
141	0x3da46f00	0.08028984
142	0xbb68f694	-0.0035547363
143	0x3d5facfe	0.054608338
144	0x3c8c9156	0.017159145
145	0x3d72f468	0.059315115
146	0xbcd167f0	-0.025562257
147	0x3b4bb971	0.0031085873
148	0x3d60c1d8	0.054872364
149	0x3b69d8dd	0.003568224
150	0x3c9b5dc2	0.018965606
151	0x39917ee9	0.0002775111
152	0x3dac00ff	0.083986275
153	0x3d475f13	0.048674654
154	0x3d913c88	0.070916235
155	0x3d2afb5b	0.041743618
156	0x3c5427ef	0.012948974
157	0x3d11a0e5	0.03555383
158	0x3c9307f4	0.017948128
159	0x3bd661a2	0.0065424005
160	0x3d9414d5	0.07230536
161	0xbb73fa3e	-0.0037228013
162	0x3d3cf4c4	0.046131864
163	0x3d42c0f8	0.04754731
164	0x3cd13a5d	0.025540525
165	0x3cf0d5de	0.029398855
166	0xbc9fa12a	-0.019486029
167	0x3d718399	0.058963392
168	0x3da70b91	0.08156503
169	0x3d606e0a	0.05479244
170	0x3d3c07ac	0.045905754
171	0xbbbbdcb5	-0.0057330974
172	0x3cf362e7	0.029710246
173	0x3d2ab5d6	0.04167732
174	0x3c43f796	0.011960885
175	0x3d15fbb6	0.036617003
176	0x3d9e465f	0.07728266
177	0xbcd9f7ad	-0.026607359
178	0x3c94e17c	0.018173926
179	0x3d4713fe	0.04860305
180	0xbcc9c58c	-0.02463033
181	0x3d896e0f	0.06710445
182	0x3c334fe1	0.010944338
183	0x3cbc022d	0.022950256
184	0x3dacec1f	0.08443474
185	0xbcbbd367	-0.022927953
186	0x3c0ca224	0.008583579
187	0x3d8d2043	0.06890919
188	0xbc8d713b	-0.017265907
189	0x3d55e9c9	0.052224908
190	0x3d2af5c2	0.04173828
191	0x3ce2935d	0.027658159
192	0xbb8129ea	-0.003941764
193	0x3d76fa34	0.060297206
194	0x3dadd4e8	0.08487874
195	0x3cfc8eef	0.030829875
196	0x3d65623f	0.056001898
197	0x3cf79764	0.030223556
198	0x3c913f15	0.017730275
199	0x3cb8aabf	0.022542356
200	0x3c9be9a7	0.019032313
201	0x3d03c299	0.032168005
202	0x3a42eda3	0.00074359233
203	0x3d3af7a4	0.045646325
204	0x3c6ac5ce	0.014329387
205	0x3d77abe0	0.060466647
206	0x3d9a6602	0.07538988
207	0x3da44891	0.080216534
208	0x3d7e4a4b	0.06208257
209	0x3b2f13ed	0.0026714758
210	0x3d823ee3	0.06359651
211	0x3d7179a3	0.058953892
212	0x3c909c5c	0.017652683
213	0x3d5d259c	0.053990945
214	0xbbce120c	-0.0062887724
215	0x3d253ebd	0.040343035
216	0x3d9c0a91	0.07619203
217	0xbb9303cf	-0.004486538
218	0x3c599c2d	0.013281864
219	0x3d8a95b3	0.06766834
220	0x3cb93a06	0.022610676
221	0x3d0b35a0	0.033986688
222	0xbc930ae2	-0.017949525
223	0x3da1330d	0.07871065
224	0x3d2c1c93	0.042019438
225	0x3d39f73b	0.045401793
226	0x3d8ec304	0.0697079
227	0x3d636ef3	0.05552573
228	0xbcd1a011	-0.02558902
229	0x3d79b456	0.060962997
230	0x3d853c4e	0.06505643
231	0xbcc99626	-0.02460773
232	0x3d32a7c0	0.04361701
233	0x3d5abec6	0.053404592
234	0x3c19b8f9	0.00938248
235	0x3d5f90e6	0.054581545
236	0x3c83c445	0.0160848
237	0xbbbec9ed	-0.0058224113
238	0xbc456616	-0.012048265
239	0xbc809cdb	-0.015699795
240	0xbcd45bad	-0.02592262
241	0x3d1edabd	0.038782824
242	0xbcb75e12	-0.022383723
243	0x3d7a9855	0.06118043
244	0xbccdb698	-0.025111482
245	0xbca77c73	-0.020445084
246	0xbc97cc5a	-0.01853006
247	0xbc758536	-0.014985373
248	0xbc6b8188	-0.014374144
249	0x3da46999	0.08027954
250	0x3d9a75a0	0.075419664
251	0x3d00a812	0.031410284
252	0x3dae82ad	0.08521018
253	0x3d5ecb12	0.05439288
254	0xbce63c0b	-0.028104803
255	0x3d79f4af	0.061024364

convs.2.0.bias f4 [2]
0	0x3daf6354	0.08563867
1	0xbb4da5fe	-0.0031379457

fc.weight f4 [2, 7]
0	0xbe0a19c0	-0.13486385
1	0xbe1c5bc7	-0.15269385
2	0xbd610b04	-0.054942146
3	0xbe71f529	-0.23628677
4	0x3e49a9bf	0.19693659
5	0x3e0bc0b8	0.13647735
6	0xbea035fd	-0.3129119
7	0x3d1b5dd7	0.03793129
8	0xbebde633	-0.3708969
9	0xbe7ec81b	-0.24881022
10	0x3db4ad61	0.08822132
11	0xbec279f4	-0.37983668
12	0x3e5ccefc	0.21563333
13	0x3eb1dce7	0.34738848

fc.bias f4 [2]
0	0x3eae659a	0.3406189
1	0xbe7de5fe	-0.24794766
